…
2022-09-01 20:33:11 [/home/zhao/code/spex+/libs/trainer.py:141 - INFO ] Model summary:
ConvTasNet(
  (encoder_1d_short): Conv1D(1, 256, kernel_size=(20,), stride=(10,))
  (encoder_1d_middle): Conv1D(1, 256, kernel_size=(80,), stride=(10,))
  (encoder_1d_long): Conv1D(1, 256, kernel_size=(160,), stride=(10,))
  (ln): ChannelWiseLayerNorm((768,), eps=1e-05, elementwise_affine=True)
  (proj): Conv1D(768, 256, kernel_size=(1,), stride=(1,))
  (conv_block_1): Conv1DBlock_v2(
    (conv1x1): Conv1D(512, 512, kernel_size=(1,), stride=(1,))
    (prelu1): PReLU(num_parameters=1)
    (lnorm1): GlobalChannelLayerNorm(512, eps=1e-05, elementwise_affine=True)
    (dconv): Conv1d(512, 512, kernel_size=(3,), stride=(1,), padding=(1,), groups=512)
    (prelu2): PReLU(num_parameters=1)
    (lnorm2): GlobalChannelLayerNorm(512, eps=1e-05, elementwise_affine=True)
    (sconv): Conv1d(512, 256, kernel_size=(1,), stride=(1,))
  )
  (conv_block_1_other): Sequential(
    (0): Conv1DBlock(
      (conv1x1): Conv1D(256, 512, kernel_size=(1,), stride=(1,))
      (prelu1): PReLU(num_parameters=1)
      (lnorm1): GlobalChannelLayerNorm(512, eps=1e-05, elementwise_affine=True)
      (dconv): Conv1d(512, 512, kernel_size=(3,), stride=(1,), padding=(2,), dilation=(2,), groups=512)
      (prelu2): PReLU(num_parameters=1)
      (lnorm2): GlobalChannelLayerNorm(512, eps=1e-05, elementwise_affine=True)
      (sconv): Conv1d(512, 256, kernel_size=(1,), stride=(1,))
    )
    (1): Conv1DBlock(
      (conv1x1): Conv1D(256, 512, kernel_size=(1,), stride=(1,))
      (prelu1): PReLU(num_parameters=1)
      (lnorm1): GlobalChannelLayerNorm(512, eps=1e-05, elementwise_affine=True)
      (dconv): Conv1d(512, 512, kernel_size=(3,), stride=(1,), padding=(4,), dilation=(4,), groups=512)
      (prelu2): PReLU(num_parameters=1)
      (lnorm2): GlobalChannelLayerNorm(512, eps=1e-05, elementwise_affine=True)
      (sconv): Conv1d(512, 256, kernel_size=(1,), stride=(1,))
    )
    (2): Conv1DBlock(
      (conv1x1): Conv1D(256, 512, kernel_size=(1,), stride=(1,))
      (prelu1): PReLU(num_parameters=1)
      (lnorm1): GlobalChannelLayerNorm(512, eps=1e-05, elementwise_affine=True)
      (dconv): Conv1d(512, 512, kernel_size=(3,), stride=(1,), padding=(8,), dilation=(8,), groups=512)
      (prelu2): PReLU(num_parameters=1)
      (lnorm2): GlobalChannelLayerNorm(512, eps=1e-05, elementwise_affine=True)
      (sconv): Conv1d(512, 256, kernel_size=(1,), stride=(1,))
    )
    (3): Conv1DBlock(
      (conv1x1): Conv1D(256, 512, kernel_size=(1,), stride=(1,))
      (prelu1): PReLU(num_parameters=1)
      (lnorm1): GlobalChannelLayerNorm(512, eps=1e-05, elementwise_affine=True)
      (dconv): Conv1d(512, 512, kernel_size=(3,), stride=(1,), padding=(16,), dilation=(16,), groups=512)
      (prelu2): PReLU(num_parameters=1)
      (lnorm2): GlobalChannelLayerNorm(512, eps=1e-05, elementwise_affine=True)
      (sconv): Conv1d(512, 256, kernel_size=(1,), stride=(1,))
    )
    (4): Conv1DBlock(
      (conv1x1): Conv1D(256, 512, kernel_size=(1,), stride=(1,))
      (prelu1): PReLU(num_parameters=1)
      (lnorm1): GlobalChannelLayerNorm(512, eps=1e-05, elementwise_affine=True)
      (dconv): Conv1d(512, 512, kernel_size=(3,), stride=(1,), padding=(32,), dilation=(32,), groups=512)
      (prelu2): PReLU(num_parameters=1)
      (lnorm2): GlobalChannelLayerNorm(512, eps=1e-05, elementwise_affine=True)
      (sconv): Conv1d(512, 256, kernel_size=(1,), stride=(1,))
    )
    (5): Conv1DBlock(
      (conv1x1): Conv1D(256, 512, kernel_size=(1,), stride=(1,))
      (prelu1): PReLU(num_parameters=1)
      (lnorm1): GlobalChannelLayerNorm(512, eps=1e-05, elementwise_affine=True)
      (dconv): Conv1d(512, 512, kernel_size=(3,), stride=(1,), padding=(64,), dilation=(64,), groups=512)
      (prelu2): PReLU(num_parameters=1)
      (lnorm2): GlobalChannelLayerNorm(512, eps=1e-05, elementwise_affine=True)
      (sconv): Conv1d(512, 256, kernel_size=(1,), stride=(1,))
    )
    (6): Conv1DBlock(
      (conv1x1): Conv1D(256, 512, kernel_size=(1,), stride=(1,))
      (prelu1): PReLU(num_parameters=1)
      (lnorm1): GlobalChannelLayerNorm(512, eps=1e-05, elementwise_affine=True)
      (dconv): Conv1d(512, 512, kernel_size=(3,), stride=(1,), padding=(128,), dilation=(128,), groups=512)
      (prelu2): PReLU(num_parameters=1)
      (lnorm2): GlobalChannelLayerNorm(512, eps=1e-05, elementwise_affine=True)
      (sconv): Conv1d(512, 256, kernel_size=(1,), stride=(1,))
    )
  )
  (conv_block_2): Conv1DBlock_v2(
    (conv1x1): Conv1D(512, 512, kernel_size=(1,), stride=(1,))
    (prelu1): PReLU(num_parameters=1)
    (lnorm1): GlobalChannelLayerNorm(512, eps=1e-05, elementwise_affine=True)
    (dconv): Conv1d(512, 512, kernel_size=(3,), stride=(1,), padding=(1,), groups=512)
    (prelu2): PReLU(num_parameters=1)
    (lnorm2): GlobalChannelLayerNorm(512, eps=1e-05, elementwise_affine=True)
    (sconv): Conv1d(512, 256, kernel_size=(1,), stride=(1,))
  )
  (conv_block_2_other): Sequential(
    (0): Conv1DBlock(
      (conv1x1): Conv1D(256, 512, kernel_size=(1,), stride=(1,))
      (prelu1): PReLU(num_parameters=1)
      (lnorm1): GlobalChannelLayerNorm(512, eps=1e-05, elementwise_affine=True)
      (dconv): Conv1d(512, 512, kernel_size=(3,), stride=(1,), padding=(2,), dilation=(2,), groups=512)
      (prelu2): PReLU(num_parameters=1)
      (lnorm2): GlobalChannelLayerNorm(512, eps=1e-05, elementwise_affine=True)
      (sconv): Conv1d(512, 256, kernel_size=(1,), stride=(1,))
    )
    (1): Conv1DBlock(
      (conv1x1): Conv1D(256, 512, kernel_size=(1,), stride=(1,))
      (prelu1): PReLU(num_parameters=1)
      (lnorm1): GlobalChannelLayerNorm(512, eps=1e-05, elementwise_affine=True)
      (dconv): Conv1d(512, 512, kernel_size=(3,), stride=(1,), padding=(4,), dilation=(4,), groups=512)
      (prelu2): PReLU(num_parameters=1)
      (lnorm2): GlobalChannelLayerNorm(512, eps=1e-05, elementwise_affine=True)
      (sconv): Conv1d(512, 256, kernel_size=(1,), stride=(1,))
    )
    (2): Conv1DBlock(
      (conv1x1): Conv1D(256, 512, kernel_size=(1,), stride=(1,))
      (prelu1): PReLU(num_parameters=1)
      (lnorm1): GlobalChannelLayerNorm(512, eps=1e-05, elementwise_affine=True)
      (dconv): Conv1d(512, 512, kernel_size=(3,), stride=(1,), padding=(8,), dilation=(8,), groups=512)
      (prelu2): PReLU(num_parameters=1)
      (lnorm2): GlobalChannelLayerNorm(512, eps=1e-05, elementwise_affine=True)
      (sconv): Conv1d(512, 256, kernel_size=(1,), stride=(1,))
    )
    (3): Conv1DBlock(
      (conv1x1): Conv1D(256, 512, kernel_size=(1,), stride=(1,))
      (prelu1): PReLU(num_parameters=1)
      (lnorm1): GlobalChannelLayerNorm(512, eps=1e-05, elementwise_affine=True)
      (dconv): Conv1d(512, 512, kernel_size=(3,), stride=(1,), padding=(16,), dilation=(16,), groups=512)
      (prelu2): PReLU(num_parameters=1)
      (lnorm2): GlobalChannelLayerNorm(512, eps=1e-05, elementwise_affine=True)
      (sconv): Conv1d(512, 256, kernel_size=(1,), stride=(1,))
    )
    (4): Conv1DBlock(
      (conv1x1): Conv1D(256, 512, kernel_size=(1,), stride=(1,))
      (prelu1): PReLU(num_parameters=1)
      (lnorm1): GlobalChannelLayerNorm(512, eps=1e-05, elementwise_affine=True)
      (dconv): Conv1d(512, 512, kernel_size=(3,), stride=(1,), padding=(32,), dilation=(32,), groups=512)
      (prelu2): PReLU(num_parameters=1)
      (lnorm2): GlobalChannelLayerNorm(512, eps=1e-05, elementwise_affine=True)
      (sconv): Conv1d(512, 256, kernel_size=(1,), stride=(1,))
    )
    (5): Conv1DBlock(
      (conv1x1): Conv1D(256, 512, kernel_size=(1,), stride=(1,))
      (prelu1): PReLU(num_parameters=1)
      (lnorm1): GlobalChannelLayerNorm(512, eps=1e-05, elementwise_affine=True)
      (dconv): Conv1d(512, 512, kernel_size=(3,), stride=(1,), padding=(64,), dilation=(64,), groups=512)
      (prelu2): PReLU(num_parameters=1)
      (lnorm2): GlobalChannelLayerNorm(512, eps=1e-05, elementwise_affine=True)
      (sconv): Conv1d(512, 256, kernel_size=(1,), stride=(1,))
    )
    (6): Conv1DBlock(
      (conv1x1): Conv1D(256, 512, kernel_size=(1,), stride=(1,))
      (prelu1): PReLU(num_parameters=1)
      (lnorm1): GlobalChannelLayerNorm(512, eps=1e-05, elementwise_affine=True)
      (dconv): Conv1d(512, 512, kernel_size=(3,), stride=(1,), padding=(128,), dilation=(128,), groups=512)
      (prelu2): PReLU(num_parameters=1)
      (lnorm2): GlobalChannelLayerNorm(512, eps=1e-05, elementwise_affine=True)
      (sconv): Conv1d(512, 256, kernel_size=(1,), stride=(1,))
    )
  )
  (conv_block_3): Conv1DBlock_v2(
    (conv1x1): Conv1D(512, 512, kernel_size=(1,), stride=(1,))
    (prelu1): PReLU(num_parameters=1)
    (lnorm1): GlobalChannelLayerNorm(512, eps=1e-05, elementwise_affine=True)
    (dconv): Conv1d(512, 512, kernel_size=(3,), stride=(1,), padding=(1,), groups=512)
    (prelu2): PReLU(num_parameters=1)
    (lnorm2): GlobalChannelLayerNorm(512, eps=1e-05, elementwise_affine=True)
    (sconv): Conv1d(512, 256, kernel_size=(1,), stride=(1,))
  )
  (conv_block_3_other): Sequential(
    (0): Conv1DBlock(
      (conv1x1): Conv1D(256, 512, kernel_size=(1,), stride=(1,))
      (prelu1): PReLU(num_parameters=1)
      (lnorm1): GlobalChannelLayerNorm(512, eps=1e-05, elementwise_affine=True)
      (dconv): Conv1d(512, 512, kernel_size=(3,), stride=(1,), padding=(2,), dilation=(2,), groups=512)
      (prelu2): PReLU(num_parameters=1)
      (lnorm2): GlobalChannelLayerNorm(512, eps=1e-05, elementwise_affine=True)
      (sconv): Conv1d(512, 256, kernel_size=(1,), stride=(1,))
    )
    (1): Conv1DBlock(
      (conv1x1): Conv1D(256, 512, kernel_size=(1,), stride=(1,))
      (prelu1): PReLU(num_parameters=1)
      (lnorm1): GlobalChannelLayerNorm(512, eps=1e-05, elementwise_affine=True)
      (dconv): Conv1d(512, 512, kernel_size=(3,), stride=(1,), padding=(4,), dilation=(4,), groups=512)
      (prelu2): PReLU(num_parameters=1)
      (lnorm2): GlobalChannelLayerNorm(512, eps=1e-05, elementwise_affine=True)
      (sconv): Conv1d(512, 256, kernel_size=(1,), stride=(1,))
    )
    (2): Conv1DBlock(
      (conv1x1): Conv1D(256, 512, kernel_size=(1,), stride=(1,))
      (prelu1): PReLU(num_parameters=1)
      (lnorm1): GlobalChannelLayerNorm(512, eps=1e-05, elementwise_affine=True)
      (dconv): Conv1d(512, 512, kernel_size=(3,), stride=(1,), padding=(8,), dilation=(8,), groups=512)
      (prelu2): PReLU(num_parameters=1)
      (lnorm2): GlobalChannelLayerNorm(512, eps=1e-05, elementwise_affine=True)
      (sconv): Conv1d(512, 256, kernel_size=(1,), stride=(1,))
    )
    (3): Conv1DBlock(
      (conv1x1): Conv1D(256, 512, kernel_size=(1,), stride=(1,))
      (prelu1): PReLU(num_parameters=1)
      (lnorm1): GlobalChannelLayerNorm(512, eps=1e-05, elementwise_affine=True)
      (dconv): Conv1d(512, 512, kernel_size=(3,), stride=(1,), padding=(16,), dilation=(16,), groups=512)
      (prelu2): PReLU(num_parameters=1)
      (lnorm2): GlobalChannelLayerNorm(512, eps=1e-05, elementwise_affine=True)
      (sconv): Conv1d(512, 256, kernel_size=(1,), stride=(1,))
    )
    (4): Conv1DBlock(
      (conv1x1): Conv1D(256, 512, kernel_size=(1,), stride=(1,))
      (prelu1): PReLU(num_parameters=1)
      (lnorm1): GlobalChannelLayerNorm(512, eps=1e-05, elementwise_affine=True)
      (dconv): Conv1d(512, 512, kernel_size=(3,), stride=(1,), padding=(32,), dilation=(32,), groups=512)
      (prelu2): PReLU(num_parameters=1)
      (lnorm2): GlobalChannelLayerNorm(512, eps=1e-05, elementwise_affine=True)
      (sconv): Conv1d(512, 256, kernel_size=(1,), stride=(1,))
    )
    (5): Conv1DBlock(
      (conv1x1): Conv1D(256, 512, kernel_size=(1,), stride=(1,))
      (prelu1): PReLU(num_parameters=1)
      (lnorm1): GlobalChannelLayerNorm(512, eps=1e-05, elementwise_affine=True)
      (dconv): Conv1d(512, 512, kernel_size=(3,), stride=(1,), padding=(64,), dilation=(64,), groups=512)
      (prelu2): PReLU(num_parameters=1)
      (lnorm2): GlobalChannelLayerNorm(512, eps=1e-05, elementwise_affine=True)
      (sconv): Conv1d(512, 256, kernel_size=(1,), stride=(1,))
    )
    (6): Conv1DBlock(
      (conv1x1): Conv1D(256, 512, kernel_size=(1,), stride=(1,))
      (prelu1): PReLU(num_parameters=1)
      (lnorm1): GlobalChannelLayerNorm(512, eps=1e-05, elementwise_affine=True)
      (dconv): Conv1d(512, 512, kernel_size=(3,), stride=(1,), padding=(128,), dilation=(128,), groups=512)
      (prelu2): PReLU(num_parameters=1)
      (lnorm2): GlobalChannelLayerNorm(512, eps=1e-05, elementwise_affine=True)
      (sconv): Conv1d(512, 256, kernel_size=(1,), stride=(1,))
    )
  )
  (conv_block_4): Conv1DBlock_v2(
    (conv1x1): Conv1D(512, 512, kernel_size=(1,), stride=(1,))
    (prelu1): PReLU(num_parameters=1)
    (lnorm1): GlobalChannelLayerNorm(512, eps=1e-05, elementwise_affine=True)
    (dconv): Conv1d(512, 512, kernel_size=(3,), stride=(1,), padding=(1,), groups=512)
    (prelu2): PReLU(num_parameters=1)
    (lnorm2): GlobalChannelLayerNorm(512, eps=1e-05, elementwise_affine=True)
    (sconv): Conv1d(512, 256, kernel_size=(1,), stride=(1,))
  )
  (conv_block_4_other): Sequential(
    (0): Conv1DBlock(
      (conv1x1): Conv1D(256, 512, kernel_size=(1,), stride=(1,))
      (prelu1): PReLU(num_parameters=1)
      (lnorm1): GlobalChannelLayerNorm(512, eps=1e-05, elementwise_affine=True)
      (dconv): Conv1d(512, 512, kernel_size=(3,), stride=(1,), padding=(2,), dilation=(2,), groups=512)
      (prelu2): PReLU(num_parameters=1)
      (lnorm2): GlobalChannelLayerNorm(512, eps=1e-05, elementwise_affine=True)
      (sconv): Conv1d(512, 256, kernel_size=(1,), stride=(1,))
    )
    (1): Conv1DBlock(
      (conv1x1): Conv1D(256, 512, kernel_size=(1,), stride=(1,))
      (prelu1): PReLU(num_parameters=1)
      (lnorm1): GlobalChannelLayerNorm(512, eps=1e-05, elementwise_affine=True)
      (dconv): Conv1d(512, 512, kernel_size=(3,), stride=(1,), padding=(4,), dilation=(4,), groups=512)
      (prelu2): PReLU(num_parameters=1)
      (lnorm2): GlobalChannelLayerNorm(512, eps=1e-05, elementwise_affine=True)
      (sconv): Conv1d(512, 256, kernel_size=(1,), stride=(1,))
    )
    (2): Conv1DBlock(
      (conv1x1): Conv1D(256, 512, kernel_size=(1,), stride=(1,))
      (prelu1): PReLU(num_parameters=1)
      (lnorm1): GlobalChannelLayerNorm(512, eps=1e-05, elementwise_affine=True)
      (dconv): Conv1d(512, 512, kernel_size=(3,), stride=(1,), padding=(8,), dilation=(8,), groups=512)
      (prelu2): PReLU(num_parameters=1)
      (lnorm2): GlobalChannelLayerNorm(512, eps=1e-05, elementwise_affine=True)
      (sconv): Conv1d(512, 256, kernel_size=(1,), stride=(1,))
    )
    (3): Conv1DBlock(
      (conv1x1): Conv1D(256, 512, kernel_size=(1,), stride=(1,))
      (prelu1): PReLU(num_parameters=1)
      (lnorm1): GlobalChannelLayerNorm(512, eps=1e-05, elementwise_affine=True)
      (dconv): Conv1d(512, 512, kernel_size=(3,), stride=(1,), padding=(16,), dilation=(16,), groups=512)
      (prelu2): PReLU(num_parameters=1)
      (lnorm2): GlobalChannelLayerNorm(512, eps=1e-05, elementwise_affine=True)
      (sconv): Conv1d(512, 256, kernel_size=(1,), stride=(1,))
    )
    (4): Conv1DBlock(
      (conv1x1): Conv1D(256, 512, kernel_size=(1,), stride=(1,))
      (prelu1): PReLU(num_parameters=1)
      (lnorm1): GlobalChannelLayerNorm(512, eps=1e-05, elementwise_affine=True)
      (dconv): Conv1d(512, 512, kernel_size=(3,), stride=(1,), padding=(32,), dilation=(32,), groups=512)
      (prelu2): PReLU(num_parameters=1)
      (lnorm2): GlobalChannelLayerNorm(512, eps=1e-05, elementwise_affine=True)
      (sconv): Conv1d(512, 256, kernel_size=(1,), stride=(1,))
    )
    (5): Conv1DBlock(
      (conv1x1): Conv1D(256, 512, kernel_size=(1,), stride=(1,))
      (prelu1): PReLU(num_parameters=1)
      (lnorm1): GlobalChannelLayerNorm(512, eps=1e-05, elementwise_affine=True)
      (dconv): Conv1d(512, 512, kernel_size=(3,), stride=(1,), padding=(64,), dilation=(64,), groups=512)
      (prelu2): PReLU(num_parameters=1)
      (lnorm2): GlobalChannelLayerNorm(512, eps=1e-05, elementwise_affine=True)
      (sconv): Conv1d(512, 256, kernel_size=(1,), stride=(1,))
    )
    (6): Conv1DBlock(
      (conv1x1): Conv1D(256, 512, kernel_size=(1,), stride=(1,))
      (prelu1): PReLU(num_parameters=1)
      (lnorm1): GlobalChannelLayerNorm(512, eps=1e-05, elementwise_affine=True)
      (dconv): Conv1d(512, 512, kernel_size=(3,), stride=(1,), padding=(128,), dilation=(128,), groups=512)
      (prelu2): PReLU(num_parameters=1)
      (lnorm2): GlobalChannelLayerNorm(512, eps=1e-05, elementwise_affine=True)
      (sconv): Conv1d(512, 256, kernel_size=(1,), stride=(1,))
    )
  )
  (mask1): Conv1D(256, 256, kernel_size=(1,), stride=(1,))
  (mask2): Conv1D(256, 256, kernel_size=(1,), stride=(1,))
  (mask3): Conv1D(256, 256, kernel_size=(1,), stride=(1,))
  (decoder_1d_1): ConvTrans1D(256, 1, kernel_size=(20,), stride=(10,))
  (decoder_1d_2): ConvTrans1D(256, 1, kernel_size=(80,), stride=(10,))
  (decoder_1d_3): ConvTrans1D(256, 1, kernel_size=(160,), stride=(10,))
  (aux_enc3): Sequential(
    (0): ChannelWiseLayerNorm((768,), eps=1e-05, elementwise_affine=True)
    (1): Conv1D(768, 256, kernel_size=(1,), stride=(1,))
    (2): ResBlock(
      (conv1): Conv1d(256, 256, kernel_size=(1,), stride=(1,), bias=False)
      (conv2): Conv1d(256, 256, kernel_size=(1,), stride=(1,), bias=False)
      (batch_norm1): BatchNorm1d(256, eps=1e-05, momentum=0.1, affine=True, track_running_stats=True)
      (batch_norm2): BatchNorm1d(256, eps=1e-05, momentum=0.1, affine=True, track_running_stats=True)
      (prelu1): PReLU(num_parameters=1)
      (prelu2): PReLU(num_parameters=1)
      (mp): MaxPool1d(kernel_size=3, stride=3, padding=0, dilation=1, ceil_mode=False)
    )
    (3): ResBlock(
      (conv1): Conv1d(256, 512, kernel_size=(1,), stride=(1,), bias=False)
      (conv2): Conv1d(512, 512, kernel_size=(1,), stride=(1,), bias=False)
      (batch_norm1): BatchNorm1d(512, eps=1e-05, momentum=0.1, affine=True, track_running_stats=True)
      (batch_norm2): BatchNorm1d(512, eps=1e-05, momentum=0.1, affine=True, track_running_stats=True)
      (prelu1): PReLU(num_parameters=1)
      (prelu2): PReLU(num_parameters=1)
      (mp): MaxPool1d(kernel_size=3, stride=3, padding=0, dilation=1, ceil_mode=False)
      (conv_downsample): Conv1d(256, 512, kernel_size=(1,), stride=(1,), bias=False)
    )
    (4): ResBlock(
      (conv1): Conv1d(512, 512, kernel_size=(1,), stride=(1,), bias=False)
      (conv2): Conv1d(512, 512, kernel_size=(1,), stride=(1,), bias=False)
      (batch_norm1): BatchNorm1d(512, eps=1e-05, momentum=0.1, affine=True, track_running_stats=True)
      (batch_norm2): BatchNorm1d(512, eps=1e-05, momentum=0.1, affine=True, track_running_stats=True)
      (prelu1): PReLU(num_parameters=1)
      (prelu2): PReLU(num_parameters=1)
      (mp): MaxPool1d(kernel_size=3, stride=3, padding=0, dilation=1, ceil_mode=False)
    )
    (5): Conv1D(512, 256, kernel_size=(1,), stride=(1,))
  )
  (pred_linear): Linear(in_features=256, out_features=101, bias=True)
)
2022-09-01 20:33:11 [/home/zhao/code/spex+/libs/trainer.py:144 - INFO ] Loading model to GPUs:(0,), #param: 11.14M
2022-09-01 20:33:11 [/home/zhao/code/spex+/libs/trainer.py:215 - INFO ] Set eval mode...
2022-09-01 20:33:45 [/home/zhao/code/spex+/libs/trainer.py:68 - INFO ] Processed 200 batches(loss = +44.28)...
2022-09-01 20:34:17 [/home/zhao/code/spex+/libs/trainer.py:68 - INFO ] Processed 400 batches(loss = +44.73)...
…
